app/src/main/assets/hr_prediction_model/model.tflite (tflite, 808192 bytes, 14 tensors)

arith.constant f4 [36]
000000 c3 03 fd 3d c0 83 5c bd 74 5a c6 3d 16 89 48 3d
       0.12354233 -0.053836584 0.09685221 0.04895886
000010 a0 83 df 3d 76 81 d9 bd 32 df e6 bb a6 dc fc 3c
       0.10913777 -0.10620396 -0.00704565 0.030866932
000020 f5 c6 72 bd b7 01 d8 bd ce a6 d3 3d 56 31 9b 3d
       -0.05927177 -0.10547202 0.1033455 0.075777695
000030 cd 08 c0 3b 39 39 a2 bd 7a a1 e5 bc 2c d5 3a bd
       0.005860424 -0.079210706 -0.0280311 -0.045613453
000040 13 06 10 3c 3b 93 29 3e a3 85 09 be 57 56 2c be
       0.008790511 0.1656007 -0.13429885 -0.16829811
000050 b2 99 f8 3d 45 19 06 3d 6e 6e ef 3d 38 a4 f0 bc
       0.1213869 0.032738943 0.11690985 -0.02937518
000060 ea 90 64 3d 93 9e 2c 3c 25 22 ca bc 27 c4 53 bd
       0.055802263 0.010535854 -0.024674485 -0.051700737
000070 d5 c3 06 3e 5b ea 66 3d 0b 28 5b 3c 82 96 14 3d
       0.13160641 0.056375843 0.013376246 0.036276348
000080 1c 11 f0 3d e1 51 4f bd 7f c6 28 be 50 3e 97 bb
       0.11722013 -0.050615195 -0.1648197 -0.0046155825

arith.constant1 f4 [36, 32]
000000 d2 45 38 3d b5 b4 43 be 5c 74 9f 3d fa c2 d7 3d
       0.04498846 -0.19111903 0.07785866 0.10535236
000010 e3 cd 32 bd 47 64 5b 3e 23 55 ba 3d 71 e8 00 bc
       -0.04365338 0.21424972 0.0909827 -0.007867918
000020 9d f3 5a 3c 0b 1a 10 bd 14 ed 17 3e 73 a3 3b bc
       0.013363746 -0.035181087 0.14836532 -0.011452544
000030 6c 13 37 be 1f a4 97 bd d2 ec 2c 3e 18 27 cd 3d
       -0.17878503 -0.074043505 0.16887215 0.10017222
000040 f1 16 04 bd 15 8b fd 3d d6 ca 20 bd 32 26 d0 3c
       -0.03224844 0.123800434 -0.03925594 0.025408838
000050 bf 53 ce bd 3a 19 6f 3a d0 b5 60 be e9 04 e8 bd
       -0.10074567 0.00091208855 -0.21944356 -0.113290615
000060 ea 71 54 be a1 20 31 3d 57 f5 8e 3d 99 d0 85 3d
       -0.2074658 0.043244008 0.069803886 0.065339275
000070 09 28 c4 3d 5d 9d ae bd 26 b0 40 3e 90 90 db 3d
       0.095779486 -0.085261084 0.18817195 0.107209325
000080 57 02 21 bb 91 f0 f4 bc fd 23 f3 bd 2a 5f 76 3d
       -0.0024568045 -0.029899867 -0.118720986 0.06014935
000090 c6 89 9b bc 37 71 39 3a f7 c3 84 bd 48 f8 f5 bd
       -0.018986594 0.000707406 -0.0648269 -0.120102465
0000a0 b6 dd c8 bd e8 d1 07 be 23 96 95 bd 70 2d b6 3b
       -0.09807913 -0.13263667 -0.07304027 0.005559616
0000b0 4d b1 92 bd 06 04 ad 3d 75 bc a1 3d ac 74 d7 bc
       -0.07162724 0.08448033 0.078972735 -0.02630075
0000c0 cf d1 9a bc 02 b1 f2 3d 73 99 3f 3d 3a aa ec bd
       -0.018898873 0.11850168 0.0467772 -0.11555906
0000d0 6f ff 48 3d 06 4e c6 39 5d a1 bb 3b 20 88 25 bd
       0.049071725 0.00037823635 0.005726023 -0.040413022
0000e0 0f ea 9c bd 48 51 64 3d 0f 7c 49 3d 62 32 b6 3d
       -0.07661831 0.05574158 0.049190577 0.088963285
0000f0 80 ff 90 3d 4e cb ce 3d a7 f0 61 3e d2 2d 08 be
       0.07079983 0.10097371 0.22064458 -0.13298729
000100 0b c9 f7 3d 4b 5b 87 bd 22 18 1d be 0a 71 8b 3d
       0.12098893 -0.066092096 -0.15341237 0.0680867
000110 b8 4a 8b bd fb 78 1e 3e 83 ef 34 bc ee e5 2e bd
       -0.06801361 0.15475838 -0.011043432 -0.042699747
000120 f8 fa 95 3b ff 45 17 bc d7 77 1e 3e 6a 52 29 be
       0.004577037 -0.009232997 0.15475403 -0.16535345
000130 65 3c db bd dd f8 bc 3d e1 13 0d 3d 2f 7b 69 bd
       -0.10704879 0.092271544 0.034442786 -0.057002243
000140 ff dd e5 3c 2a 65 ad 3d 53 57 4a 3d e3 22 b3 bc
       0.028059958 0.08466561 0.049399685 -0.021867221
000150 3e 5d 0d be a7 59 a9 bd 58 47 ea bd 88 1b a8 3d
       -0.138051 -0.08269053 -0.11439389 0.08208376
000160 e1 76 27 be 1c 31 c7 3d b4 8d 9c 3d 5d 78 a8 3d
       -0.16353942 0.09726164 0.07644215 0.082260825
000170 ca 99 c1 3c 98 7f 3f 3d a5 df a5 3d 06 93 ce bd
       0.023632903 0.046752542 0.080992974 -0.10086636
000180 30 38 d9 3c 87 15 0c 3d 40 7a a4 bd 68 85 28 3e
       0.02651605 0.034200218 -0.0803113 0.1645714
000190 da 53 08 bd e1 4d 81 bd 67 93 f9 3a 04 93 98 bd
       -0.033283092 -0.06313682 0.0019041122 -0.07449916
0001a0 e4 34 23 bd fb 40 b3 bb 5a a6 1f 3e b4 65 36 be
       -0.039845362 -0.0054703928 0.15590802 -0.17812234
0001b0 c1 c0 b4 bd ef b7 19 bc fe 3b 0e 3e 15 5a 50 be
       -0.088258274 -0.009382232 0.13890073 -0.20346864
0001c0 b9 7e e8 bd a9 b0 17 3e c0 88 cf 3d 96 55 5d be
       -0.113522954 0.14813484 0.10133505 -0.2161468
0001d0 15 17 20 3c 6a 7d 20 be de ab 4f 3d c0 90 d7 3d
       0.009771128 -0.15672842 0.050701015 0.10525656
0001e0 20 89 4d bd ec d9 eb 3d 30 de 11 bd 74 27 17 3e
       -0.0501796 0.11516175 -0.035612285 0.14761144
0001f0 be fa 5e 3b 82 92 7b 3d 07 50 bb 3d a9 b9 2f be
       0.0034023966 0.061419018 0.091461234 -0.17160667
000200 f7 aa e2 3c 7e 56 97 3d c0 c7 d9 3d 99 27 1c 3e
       0.027669413 0.07389544 0.106338024 0.1524948
000210 4e fb 72 3d b5 a2 3e 3e 61 34 02 be 3e 5e c7 bd
       0.059321694 0.18616755 -0.12715293 -0.09734772
000220 02 32 21 be ed 43 ed 3d 8a d0 29 3e 5b 85 e4 3d
       -0.15741733 0.115852214 0.16583458 0.11158248
000230 53 e2 ae bc d4 c0 33 bd 8d b5 82 3c 3a 9d 89 bd
       -0.021348154 -0.043885067 0.01595571 -0.06719442
000240 33 1d d6 bd 44 77 93 bd e0 89 d3 3d 9e 4c 16 be
       -0.10454788 -0.072004825 0.10329032 -0.14677665
000250 cf aa 27 be 80 02 d2 3d d2 a0 8d bd ac 52 c2 3d
       -0.16373752 0.10254383 -0.0691544 0.09488425
000260 76 be 3c be 6f f8 b5 3c 96 5c 4b bc 62 ce 2b 3b
       -0.1843203 0.022213189 -0.012412211 0.0026215543
000270 f1 69 05 3d ea ec 12 3e 2b 39 80 3d 49 84 c7 bd
       0.032571737 0.14348188 0.06260904 -0.09742028
000280 55 f1 ad 3b 68 40 ab 3d 77 09 42 be 5e f0 9c bd
       0.00530831 0.08361894 -0.18948923 -0.07663034
000290 f8 0d 58 be 23 2f b9 bd 66 5e b1 bd 01 f2 cf bd
       -0.21099079 -0.09042194 -0.08660583 -0.101535805
0002a0 c6 33 f2 3d 1d 4c c2 bd 40 e7 dd 3d f5 2e 01 bc
       0.11826281 -0.09487174 0.10835123 -0.007884731
0002b0 c6 3f 0f 3e 0a 9a 5c 3e 95 6d 06 3c 36 5d 04 3d
       0.13989171 0.21543136 0.008204837 0.032315455
0002c0 04 87 5a bd de 12 54 bd d4 43 7f bc 0d 8b 26 be
       -0.053351417 -0.051775806 -0.015580136 -0.16263981
0002d0 dc 0f ad bd 19 99 74 3d 88 35 d5 3c 21 6a c8 3d
       -0.084502906 0.059716318 0.026026502 0.097858675
0002e0 45 2b 17 3e 9e a9 41 3d 2a 8c 3c be 8a 37 94 3d
       0.147626 0.0472809 -0.18412843 0.07237156
0002f0 ba fa 6b bd 03 fd 9f 3b 4b 95 c7 3b d7 e2 33 be
       -0.05761216 0.0048824563 0.006090795 -0.17567001
000300 53 76 9b 3c e1 23 3a be 32 12 09 be 2a 1f 2c be
       0.01897732 -0.18177749 -0.13385847 -0.16808763
000310 6b ae 9f bd 7d 8c 81 bd a9 16 89 3d 36 8e 24 bd
       -0.077969395 -0.06325624 0.06693775 -0.040174685
000320 44 57 ab bc 80 46 82 bd d6 65 46 bd c7 3b 55 3e
       -0.020915635 -0.06361103 -0.048436962 0.20823584
000330 16 51 04 be c3 20 3b bd 6f b3 09 3e a0 57 0c 3e
       -0.12921557 -0.04568554 0.13447355 0.13705301
000340 7f 6d 2f 3e ec 67 7c bd c8 a9 b9 bd 7f 0a 38 be
       0.17131613 -0.061622545 -0.09065586 -0.17972754
000350 63 79 70 bc c3 1d b2 3d 85 f2 1c 3e 0c 37 f8 bc
       -0.014677378 0.08697083 0.15326889 -0.030299686
000360 4e 79 20 3d b4 d4 2e 3e 8e bd ec bd 7d 39 67 3e
       0.039178185 0.17073327 -0.11559592 0.22580524
000370 03 45 d1 bc 93 03 b5 bd 23 e6 97 bd 76 bb ff 3d
       -0.025545603 -0.08838572 -0.07416942 0.12486927
000380 0b 45 bb bd fe 09 36 be 59 9e 85 3d b7 a5 ab bd
       -0.09144028 -0.17777249 0.06524343 -0.08381217
000390 8e 3c 21 be b3 8f 09 3e a6 22 d6 bc 7b e6 2b bc
       -0.15745756 0.13433723 -0.026139569 -0.010491963
0003a0 77 4d f0 3d 86 c0 88 3d ac f9 50 3d 33 1b 0f be
       0.11733525 0.06677346 0.051019356 -0.1397522
0003b0 5b ae 96 3c 9c 12 16 3e f1 8d 95 bd bf f3 0d bb
       0.018393686 0.14655536 -0.07302464 -0.0021660177
0003c0 e9 72 98 bd 43 c8 c9 3d 54 75 bf 3c 4c 2c b3 bd
       -0.074437924 0.0985265 0.023371376 -0.08748683
0003d0 8c 42 0f 3e 47 21 30 be 50 20 00 3e 5f fb 50 be
       0.1399023 -0.17200194 0.12512326 -0.2040839
0003e0 5b 04 25 be d6 36 14 3e 1e 94 1d be 78 e3 44 bc
       -0.16114943 0.14474043 -0.15388533 -0.012017123
0003f0 70 ba f8 3d a3 ba 92 3d 2b 7c 2b 3e 6d 43 92 bd
       0.12144935 0.071645044 0.16746585 -0.07141767

arith.constant2 f4 [32, 64]
000000 5c 85 38 3d 80 0c af 3d 03 e8 26 bc 16 0d 77 3d
       0.045049056 0.08547306 -0.010187152 0.060315214
000010 e1 2f ba 3d bb ec bb 39 58 5a 1a bc 59 b0 94 bc
       0.090911634 0.00035843797 -0.009420954 -0.018150495
000020 26 cb b7 bd 77 8f f7 bb aa b4 53 bc 35 b0 f0 3d
       -0.08974294 -0.007554944 -0.012921492 0.11752359
000030 27 d5 54 bd 48 ad ca 3d 5e 46 0d 3d be b3 f0 3d
       -0.05196109 0.09896332 0.034490936 0.11753033
000040 53 9c 0e 3e ef 98 f8 3d 07 45 0b 3e 6f a8 92 bd
       0.1392682 0.12138545 0.1360055 -0.071610324
000050 f0 c3 e1 3c 7a de ac 3d 7b 40 c9 3c 7e 5f 6d 3d
       0.02755925 0.084408715 0.02456688 0.057952397
000060 46 20 ba 3b da a0 b2 bd e6 e6 9d bd 3b 87 cc 3d
       0.005680117 -0.08722086 -0.07710056 0.09986731
000070 20 64 19 bb da a0 bd 3d c6 51 fc 3d 9c c6 03 bb
       -0.0023405626 0.092591956 0.123202845 -0.0020107394
000080 db 8d 37 3d 52 a1 6f bd e4 bf 7e 3d 99 f5 4d bd
       0.04481302 -0.058503456 0.06219472 -0.05028305
000090 6d eb a3 bd da d3 81 bd 02 4d 9f bd c7 ad c2 bc
       -0.08003888 -0.063392356 -0.0777836 -0.023764504
0000a0 5f e0 d6 bd 0f ef 93 bd 07 dd 6f 3d 43 b4 78 bb
       -0.10492014 -0.07223331 0.058560397 -0.0037949241
0000b0 22 4d c3 bc 98 d0 27 bc 3b 6c ab bd e6 18 c0 bd
       -0.02384049 -0.010242604 -0.08370253 -0.09379749
0000c0 2a fd d4 3c ba 3e 81 bd c4 e1 a5 bd b2 82 9c bd
       0.025999624 -0.06310792 -0.08099702 -0.07642116
0000d0 87 2f 87 bd 81 63 93 3d e9 d0 0c 3e ff 4d fb 3c
       -0.06600862 0.07196713 0.13751568 0.03067684
0000e0 f3 13 fa 3d e0 b9 5f bd 33 60 08 3e 45 32 b1 bd
       0.12210836 -0.054620624 0.13317947 -0.08652166
0000f0 39 1d 65 bd 3b df 50 3d 9a c4 9a 3d fd 9d 06 3d
       -0.055936072 0.05099414 0.0755703 0.032865513
000100 3f 90 4b bd be ff ef 3d 51 50 c2 bd b0 c1 99 3d
       -0.04969811 0.11718701 -0.094879754 0.07507646
000110 e3 6c 9c bd ac 8d 59 bd 01 68 09 3d ac 8d 02 3d
       -0.07637956 -0.053113624 0.03354645 0.03187339
000120 dd 9b 0e 3d 08 ed 1d 3e 4e 84 11 3d a5 fb d4 3d
       0.03481661 0.15422451 0.035526566 0.1039956
000130 34 86 fc 3d 6d 58 e1 3c f5 f8 e2 bd ad 29 49 3d
       0.12330285 0.027507985 -0.11082641 0.04911201
000140 e0 3b 19 bd 29 91 b8 3d 0b ea 08 3d f4 c2 36 bd
       -0.037410617 0.09012062 0.033426326 -0.044619516
000150 53 35 85 3d 0e 21 95 bd 43 1c 98 3d 79 5a a1 3d
       0.065043114 -0.07281695 0.074272655 0.078785844
000160 b7 f2 c8 3d b0 b3 0b 3e 96 25 97 3d 69 d6 13 3e
       0.09811919 0.13642764 0.07380216 0.1443726
000170 5f 3f 86 bd bd 7a e8 3c a7 6b dc bc 39 f5 2a 3b
       -0.06555056 0.028378839 -0.026906801 0.0026086105
000180 38 ae 92 3d 68 40 89 3d 56 94 f5 3d 2d 2d eb 3d
       0.07162136 0.06701738 0.119911835 0.11483226
000190 06 29 8e bd 01 38 9b 39 f5 93 8b 3c d0 85 80 bd
       -0.06941418 0.0002960563 0.017038325 -0.06275523
0001a0 cf 90 1d bd ee a6 14 bd 5f ed 06 bd 18 6c b3 bc
       -0.03846818 -0.03629201 -0.03294122 -0.021902129
0001b0 11 62 57 bd 70 3a dd 3d a6 59 fc bb a8 bb 04 3e
       -0.052583758 0.10802162 -0.0077011166 0.1296221
0001c0 3f 3e 08 bd 72 cb df 3d eb 8b 38 bd 6b 87 eb 3c
       -0.033262488 0.10927476 -0.04505531 0.028751096
0001d0 d1 de 0b 3e e1 09 93 3d e1 6e 5a 3d 58 6e 4f bd
       0.13659216 0.071796186 0.0533284 -0.05064234
0001e0 c6 86 ca 3d 2e 7d eb 3a 7b 41 5b bd 38 87 8f 3d
       0.09888987 0.0017966384 -0.053529244 0.07008213
0001f0 a7 3c b2 bd fd f6 b9 bd 4d 9b 2c bd a6 c3 66 bd
       -0.08702975 -0.090803124 -0.042140294 -0.05633893
000200 1b 8c 21 3b f9 a3 75 3d a0 99 f5 bd 28 7d a2 bd
       0.002465016 0.05997083 -0.11992192 -0.07934028
000210 69 f3 79 3d ad 25 cd bd ac 6b 93 bc b3 0a fe 3b
       0.06102315 -0.10016952 -0.017995678 0.0077527403
000220 78 5a 44 3d 83 67 4d b9 33 48 b4 3d 6d 5b e8 3d
       0.04793784 -0.00019588885 0.088028334 0.11345563
000230 15 36 b6 3d 64 1a 47 bc 09 78 72 bd 7f 65 91 3d
       0.08897034 -0.012152288 -0.059196506 0.07099437
000240 0d 41 f1 3b dd 4b 49 bb 4e 37 7f bd 57 cb 8d 3c
       0.007362491 -0.0030715384 -0.062308602 0.017308874
000250 fd a5 b0 3d b3 3a b7 3d 3b 33 f9 3a d7 ef 32 bc
       0.0862541 0.08946743 0.001901246 -0.01092144
000260 11 a0 c8 3d 85 b7 e9 3d 71 2b 06 3c 90 87 b7 3d
       0.09796155 0.11411957 0.008189068 0.08961403
000270 62 2e d5 bc 60 2b e7 3c e4 1c 14 bd 11 87 27 3c
       -0.026023094 0.028218925 -0.036160365 0.010225073
000280 77 95 be 3c 6c b7 85 3d 86 99 b1 bd 7e f3 d2 bd
       0.02326463 0.065291256 -0.086718604 -0.10300349
000290 05 6a e6 3d 33 25 1a 3c 16 6a 4d bd e1 25 f2 3d
       0.1125069 0.009408283 -0.05015 0.11823631
0002a0 57 0f be 3b 97 d3 c7 bd 28 55 96 3c 8c 33 8a 3d
       0.0058001685 -0.097571544 0.018351153 0.06748113
0002b0 67 79 2b 3d 0c dc 15 3b 3a 37 c3 3d 46 55 ba 3d
       0.041863825 0.0022866754 0.09532018 0.09098296
0002c0 2f ea 02 be c5 91 59 3d fe d3 d5 3d fd df 88 3c
       -0.12784646 0.053117532 0.10440825 0.016708368
0002d0 d8 a8 e6 3d 7b 54 90 bd d0 af d3 3d 32 5b d8 bd
       0.11262673 -0.07047363 0.10336268 -0.10564269
0002e0 f1 c8 d1 bc 87 a7 ed bd d1 d5 bd bd 5d fe eb bc
       -0.025608512 -0.11604219 -0.09269298 -0.028807813
0002f0 56 04 8a 3d 30 77 fa 3d a4 98 91 bc b1 90 e7 3c
       0.06739108 0.122297645 -0.01777298 0.028267236
000300 36 fa 2b bd 0f df e4 3d 5c 3b 5c bd bd a9 81 3c
       -0.041986667 0.111753576 -0.053767547 0.015828008
000310 47 62 c6 bd fe 4f bf 3d 25 59 a4 bb e4 6e b0 3d
       -0.09686714 0.09341429 -0.0050155097 0.08614901
000320 c6 c4 a6 bd fe a0 41 3d 17 ba b5 3d 60 44 94 bd
       -0.08143 0.047272675 0.088733844 -0.07239604
000330 d6 61 5e 3d 7e 2a 72 3d 1a 10 4c bd f7 92 69 3c
       0.054292522 0.059122555 -0.049820043 0.014256231
000340 f7 3c fe bc e7 5d 3f 3d 3e 2a e5 bc 12 1b 83 3d
       -0.03103493 0.04672041 -0.027974244 0.064016476
000350 6b ed 1a 3d 17 a4 02 3c 82 ea e6 3d f9 b8 2e 3d
       0.037824076 0.007973692 0.112751976 0.042656872
000360 f6 8f dc bd a1 16 b3 3d 5f ce de 3c 31 c6 dd bc
       -0.10769646 0.087445505 0.027198015 -0.027072044
000370 bc 99 0e bd 2b 29 6a bd 3a c0 c0 bd af a6 6f 3d
       -0.03481458 -0.057168167 -0.09411664 0.05850857
000380 c8 8e ba bd 38 1a 86 3d ca a2 2f 3d d8 20 a0 3b
       -0.091092646 0.065479696 0.042879857 0.004886728
000390 a5 77 3b 3d 54 d5 8b bd 71 39 7c bd 37 4b 38 bc
       0.0457684 -0.068277985 -0.061578218 -0.011248401
0003a0 09 0e 89 bd dc b4 e6 bc 02 85 fc bd 72 b5 a5 bd
       -0.0669213 -0.028162412 -0.12330057 -0.080912486
0003b0 de 39 e9 3d 5f 4d ae bd cd 4b 73 bd 7f 71 d1 bd
       0.113879904 -0.08510851 -0.05939846 -0.10226726
0003c0 c8 ff a6 bd ba ee da 3c 52 8a ac bd 5a bf a9 3d
       -0.08154255 0.026725162 -0.0842482 0.082884505
0003d0 31 0d c9 bd 83 39 e4 ba 1e cd 85 bc db 58 ad bc
       -0.09816969 -0.0017412159 -0.016333159 -0.021160534
0003e0 ce bc a5 bd b0 f5 cc 3c d6 ed da bd 8d f2 af bc
       -0.08092652 0.025019497 -0.10689895 -0.021477962
0003f0 08 5b c9 bd 85 d9 8a 3c 51 c3 ef bc 25 a9 e6 bd
       -0.09831816 0.016949425 -0.029267939 -0.112627305

arith.constant3 f4 [64, 64]
000000 ba bc 07 bd 8c f0 12 bd 25 36 80 bc 0f 38 9a bd
       -0.033138968 -0.035873935 -0.015650818 -0.075302236
000010 c7 fa d2 bd 54 95 e6 bb c6 8e 81 3d 25 27 97 3d
       -0.10301738 -0.0070368443 0.0632606 0.07380513
000020 c9 19 02 3e 2a 88 b6 bd 67 41 3f 3d f9 97 fe 3d
       0.12705149 -0.0891269 0.046693232 0.1243133
000030 fe f2 a5 bd d9 1a ab bd f7 5e b7 bc b5 62 ae bc
       -0.08102988 -0.0835473 -0.02238415 -0.021287302
000040 7b 07 49 bd b1 b2 ba bd 1d 06 07 3e 60 ef 37 3c
       -0.0490794 -0.09116114 0.13185926 0.011226505
000050 1c 9f d3 bc dc cd ac bb ff a9 2e 3d 01 3e 27 3d
       -0.025832705 -0.005273564 0.04264259 0.040830616
000060 77 94 83 bd dc 20 9e 3c 27 04 4b bd eb 35 a7 bd
       -0.06424802 0.019302778 -0.049564507 -0.08164581
000070 9a 77 56 3d 08 6f 71 bd 28 da bb bb 45 25 01 3e
       0.052360155 -0.05894378 -0.0057327934 0.12611873
000080 9f 08 21 3d c3 f1 06 3e 9f 70 13 3d d2 b8 0e 3e
       0.039314862 0.13178162 0.035996076 0.13937691
000090 bf 48 e6 bd 63 6b 2e bd ae 29 26 bd 4d 96 ae bd
       -0.11244344 -0.04258288 -0.040567093 -0.08524761
0000a0 bc 32 40 bd 1c d5 80 bb 4b bb 67 3d b1 07 90 bd
       -0.046923384 -0.0039316546 0.0565751 -0.07032717
0000b0 64 f6 8d bd f4 99 60 3c bf 28 af 3d 0e fd ae bd
       -0.06931761 0.01370858 0.085526936 -0.0854436
0000c0 9d c3 ee 3d 7f 29 01 3d 74 99 86 3d 8d e5 19 3d
       0.11658404 0.031533714 0.065722376 0.037572432
0000d0 02 09 f5 3c 58 28 ae bd 20 a2 33 3d 67 b3 c7 bd
       0.029911522 -0.08503789 0.043855786 -0.09751015
0000e0 bd d0 09 3d 58 a5 03 bd d4 a1 a8 bd 42 48 b2 3d
       0.033646334 -0.032140106 -0.08233991 0.08705188
0000f0 ff 11 0e bd 7f 55 c1 bd b7 56 95 bd 33 4f 81 bd
       -0.03468513 -0.09440135 -0.0729193 -0.06313934
000100 7c f8 82 3d 86 be d5 3d 17 49 b8 bd 20 3d 2e 3d
       0.06395051 0.1043673 -0.08998316 0.042538762
000110 9f 85 91 bd 98 41 28 3d 26 f0 b7 bd 96 53 01 3e
       -0.07105564 0.04107818 -0.089813516 0.12629542
000120 49 84 26 38 57 17 a4 3d 02 ee 54 3d c8 8f 48 3d
       3.9700684e-05 0.08012264 0.051984794 0.048965245
000130 7c 43 0d 3e d4 5f 2c 3d 77 e9 20 3c 43 a5 a9 b9
       0.13795274 0.042083576 0.009821287 -0.00032357321
000140 62 fd 99 3d f9 c2 b3 bc ac f8 a3 bd 61 fc df 3d
       0.07519032 -0.021943556 -0.08006415 0.10936809
000150 27 8f ee 3c 3d 32 ad bd 3c f8 5e 3b 8f 9f 06 bd
       0.029120995 -0.08456848 0.003402247 -0.03286701
000160 5a 5c 11 3d f8 99 a2 3c e9 d9 58 bd b0 c3 41 bd
       0.035488464 0.019848809 -0.05294219 -0.047305763
000170 97 5b a8 3d 16 c5 53 bd 11 0c fd bb 17 de bc bc
       0.082205944 -0.051701628 -0.0077223857 -0.02305512
000180 fd 5f 4a bd a7 42 1b 3e e9 85 b2 3d 72 0e 89 3d
       -0.049407948 0.15162145 0.087169476 0.06692208
000190 b1 a4 87 3d 77 58 9b bd 02 d2 ab bd f3 dd 8b bd
       0.06623209 -0.07585233 -0.08389665 -0.06829443
0001a0 0b 42 f1 bc 6e 84 c6 bd c7 6e af 3d 5b 4d fb 3d
       -0.029450437 -0.09693228 0.08566051 0.12270614
0001b0 a5 0f 49 3d 0f 8e b1 3b 83 86 3c 3d 56 e2 00 3e
       0.049087185 0.005418546 0.046026718 0.1258634
0001c0 0f 57 50 3d 89 54 ad 3d ab 97 00 3e 0a 1d 83 3d
       0.050864276 0.084633894 0.12557857 0.06402023
0001d0 24 ab 05 3c 7a ab 28 3c 11 2a 8a bd 1e df ac bd
       0.008158479 0.010294789 -0.06746305 -0.08440994
0001e0 89 a9 8f bd bf 9d 66 bc 84 0e cf 3d d9 5a 70 bd
       -0.07014758 -0.014075696 0.101101905 -0.05868039
0001f0 58 d2 89 3d 5d 2d 36 bd ef ab 4d bd 8e e7 bb bc
       0.06729573 -0.044476856 -0.050212797 -0.022937562
000200 61 15 a0 bc d2 c5 92 3d a3 b8 0a 3e 0a 5a 9a bd
       -0.019541444 0.071666375 0.13546996 -0.07536705
000210 17 a3 93 bd 3c fd 58 bc 5c 6d 6d 3d ba 01 91 3d
       -0.07208841 -0.0132439695 0.05796562 0.070804074
000220 48 9c e6 bd 72 28 bd bd 86 28 11 39 85 cc 84 bd
       -0.11260277 -0.0923623 0.00013843374 -0.064843215
000230 d7 68 7f 3b 2b 99 72 bd 9e 89 fb bd 73 fe b6 bd
       0.0038972402 -0.059228104 -0.12282108 -0.08935251
000240 94 0f 8f 3d a1 ab 15 3c 1b fd 72 3d c5 4d 99 bd
       0.06985393 0.009135158 0.05932341 -0.074855365
000250 ce ab e3 3d 8d 9f 12 3c 43 12 fe 3c ea c5 e4 3d
       0.111167535 0.008949173 0.031014567 0.111705616
000260 2f 42 ab bc 6b f2 a2 3d 02 4b f8 3d ba 29 87 bd
       -0.020905582 0.07956394 0.121236816 -0.065997556
000270 73 14 17 3d 6e ff 02 be c3 4d 0f bc e1 a1 87 bd
       0.036884736 -0.12792751 -0.008746567 -0.06622673
000280 74 33 10 3e bb 1e cd 3d 6f 65 fa 3d 6f 25 ae 3d
       0.14082128 0.10015627 0.12226378 0.08503234
000290 06 c3 7b 3b 7c e5 21 3e 2e 33 a6 bc 0d 1b 25 3d
       0.0038415804 0.15810198 -0.020288076 0.040309
0002a0 ea c4 6c 3d b9 f5 cb 3d 90 65 ad 3d cc f1 71 bd
       0.05780498 0.09958977 0.08466637 -0.059068486
0002b0 cd a1 b0 bd ee 7e c8 3d 98 74 62 3d c3 49 91 bd
       -0.08624611 0.09789835 0.055286974 -0.07094147
0002c0 b1 4f 69 3c 90 54 0c 3e c6 cf 79 3c a8 3f 34 bd
       0.014240191 0.13704133 0.015247291 -0.04400602
0002d0 10 7a 27 bc c2 bf aa 3d 1a ea b7 bd 20 c2 ca 3d
       -0.010221973 0.08337356 -0.08980198 0.09900308
0002e0 34 24 a6 bc a6 45 13 3e 3f c7 94 bc 3c 70 c0 bb
       -0.020280935 0.14382038 -0.018161414 -0.0058727544
0002f0 98 f5 37 3c 79 5b b6 3b 6c fd 17 3e 53 c4 e7 3c
       0.011227988 0.0055651036 0.14842767 0.028291857
000300 cd 72 12 3d 23 3d ad bd 20 c2 ef bc 8c 07 c2 3a
       0.035754014 -0.084589265 -0.02926737 0.0014803275
000310 fe ba 92 3d ce ee a1 3d 2c 5e 9e 3b e4 6d e7 3d
       0.07164572 0.079068765 0.0048330035 0.11300257
000320 73 97 fe 3d e8 f5 05 3e ac 34 84 3d ee 59 ba 3d
       0.124312304 0.13082087 0.06455359 0.09099184
000330 d6 b1 01 3c cf 1f 00 bd 94 6e 1c 3e 93 ba 1e bd
       0.007915935 -0.031280335 0.15276557 -0.03875215
000340 be 74 71 3d 52 fc f0 bb 4e 66 54 3c 9a 45 7d bd
       0.058949225 -0.0073542977 0.012963844 -0.061833955
000350 b1 0b fd bc 55 c0 3b 3d f8 2f 8d 3c c8 4a 58 bc
       -0.030889364 0.04583772 0.017234787 -0.013201423
000360 98 2f 87 3d 97 f0 93 3d 93 0d a2 3d 16 d9 ba 3c
       0.06600875 0.07223623 0.07912745 0.022808593
000370 55 07 02 be 07 d5 1c 3d 09 93 0e 3e 82 f3 fd 3d
       -0.1269811 0.038289096 0.13923277 0.12399961
000380 45 a6 7a 3d 6b 6e 18 3d d9 c4 7c 3d fc 97 ff 3d
       0.061193723 0.037214678 0.061711166 0.124801606
000390 5b 0d 0a be 4a cc 00 be 2a 4a d5 3d f9 75 75 3d
       -0.13481657 -0.1257793 0.10414536 0.05992696
0003a0 4e 4c b8 bd 37 d0 30 bd b7 84 fb bd 50 ea 05 be
       -0.08998929 -0.04316732 -0.12281173 -0.13077664
0003b0 0d ba 2c 3d dd 34 ae 3d fa ba 0b 3e 9b 6c 89 bd
       0.04216962 0.085061766 0.13645545 -0.06710168
0003c0 0d 0c 80 3d bb 68 cd 3b 9f 20 df 3d fb cd 70 bc
       0.062522985 0.0062685884 0.10894894 -0.014697547
0003d0 8b 67 ca bd 50 20 78 3d 5c e8 c8 3d 26 c4 40 bd
       -0.098830305 0.06057769 0.09809944 -0.04706206
0003e0 47 a1 0b 3d 2e ac bf bd b9 96 78 3d e9 33 e1 3b
       0.034089353 -0.093590125 0.060690615 0.0068726433
0003f0 94 49 24 bd 09 2f 92 3d f7 08 b0 bd d0 eb a1 bd
       -0.040109232 0.071378775 -0.0859546 -0.07906306

arith.constant4 f4 [64, 128]
000000 dd 19 b3 3d dd 4c 84 bc 26 00 90 3d 4d d4 a3 bd
       0.087451674 -0.016149933 0.07031278 -0.079994775
000010 1e 5c 45 3d 09 87 59 3d d5 4e bb 3c 33 c5 95 bd
       0.048183553 0.053107295 0.022864738 -0.073130034
000020 c5 4f 1b bb bd 6e 97 3d a8 a6 85 3d fb 6d 2a bd
       -0.002369867 0.073941685 0.06525928 -0.04160879
000030 78 78 a9 3b f8 08 bc 3d 7d 2d 14 3d cf f7 ac 3d
       0.0051718317 0.09181398 0.036176194 0.08445703
000040 ed 6f 84 3d 5b 51 82 bd 7c d6 9e bd 21 e9 73 bd
       0.06466661 -0.063631736 -0.077557534 -0.0595485
000050 34 8a 8e bc 6c 64 b9 bc 75 bf 29 3d ca 23 bf bc
       -0.017399885 -0.022630893 0.041442353 -0.023332495
000060 d7 2c 33 bd 45 10 83 bd 8d 24 97 3d 5c 5e 65 3d
       -0.043743934 -0.063995875 0.073800184 0.05599819
000070 2d 37 83 3d f0 5e a9 3d 3b 78 35 bc 7b 9e 85 bd
       0.06407008 0.08270061 -0.011076028 -0.065243684
000080 fa fd 7f bd 0c a6 ed 3a 97 03 e4 3c 5f 04 0e 3d
       -0.06249807 0.0018131151 0.027833743 0.034672137
000090 2d 15 f1 bc 25 f2 53 3d 50 7c 5f 3d c5 a6 00 bd
       -0.029429043 0.0517446 0.054561913 -0.031409044
0000a0 46 d7 cf bd 6d ea 8c 3d 8d 82 9f bd 24 a6 62 bd
       -0.10148482 0.06880651 -0.077885725 -0.055334225
0000b0 60 d3 63 3d 5f 5f 31 bc be bb dd 3c 48 2a 29 bc
       0.055621505 -0.010825961 0.027067062 -0.010325022
0000c0 64 1c 92 bd 91 e6 76 3d 9c 0d 97 bd e8 e1 b9 3d
       -0.07134321 0.06027848 -0.07375643 0.09076291
0000d0 55 1b f4 ba cf bf 34 3d 8a 47 a1 3d e3 1c a2 3c
       -0.0018623868 0.044128235 0.07874973 0.019789165
0000e0 c7 0d 45 3d 97 c6 b9 3d 90 8e b1 bc 67 26 58 bd
       0.048108842 0.09071081 -0.021674424 -0.052771
0000f0 d9 74 52 3d af 6d 78 3d 41 07 29 3d 45 42 6c bd
       0.051380966 0.060651477 0.041266683 -0.057680387
000100 a6 85 22 bd b6 89 a4 3d 14 5c e4 bc 47 9d 35 3d
       -0.03967824 0.08034079 -0.027875938 0.044339444
000110 5d 3b 29 bd 21 80 2b bd 9d c4 f4 3c 6b e7 78 3d
       -0.04131638 -0.04187024 0.029878909 0.060767572
000120 d9 5b 24 bc 8f fa a7 bc 02 59 59 bd 0a ab 8c bd
       -0.010031664 -0.020505218 -0.0530634 -0.068685606
000130 40 7e 6a bd b9 74 8a 3d ac 31 88 3d b3 66 51 3d
       -0.057249308 0.06760544 0.06650099 0.051123332
000140 d7 92 d8 bc 3b b8 5b bd 5f 18 4a 3d 51 5f 5a bc
       -0.026437206 -0.053642493 0.04933965 -0.013328389
000150 f7 7c af 3d d8 94 f0 bb 36 45 96 bd 23 1e 05 3d
       0.08568757 -0.0073419623 -0.0733742 0.032499444
000160 69 f1 9e 3d e8 71 76 3d e2 a7 38 bd 61 93 21 3d
       0.07760889 0.060167223 -0.04508198 0.039447192
000170 4a e3 49 bd c3 c0 4c bc e3 1c 88 bd 7f 1f 3a bc
       -0.049289025 -0.01249713 -0.06646135 -0.011360048
000180 b8 25 a1 bd d2 54 89 3d c1 b1 27 3d a7 66 ba 3d
       -0.078685224 0.06705631 0.040941004 0.09101611
000190 b9 91 18 3c f2 8d 25 bd 7a ca 48 bd b2 c0 1d 3d
       0.009312087 -0.040418573 -0.04902122 0.038513847
0001a0 cc 7b bc 3d a9 f0 87 3c 9a 6f 6b 3d 5d 8f 3e bd
       0.092033 0.016594248 0.05747948 -0.04652344
0001b0 e8 dc b9 3d 4c c8 06 3d 90 d9 c5 3d ca 56 b1 3d
       0.09075338 0.03290586 0.096606374 0.08659132
0001c0 85 7d 89 3d 7f 66 43 bd 0e 8d 34 3d 15 37 d3 3c
       0.06713394 -0.04770517 0.044079833 0.025783101
0001d0 11 be 25 3d 48 f0 b5 bd fd e7 5a bb c6 dd e2 3c
       0.040464465 -0.08883721 -0.0033402436 0.02769364
0001e0 22 60 79 3c 0d a4 35 3d 04 c7 19 3d ee 66 6c 3d
       0.015220674 0.044345904 0.03754331 0.05771535
0001f0 25 f2 ef 3b bf 9f 2b 3d 18 76 d0 3d 78 87 e8 bb
       0.007322567 0.041900393 0.101787746 -0.0070962273
000200 24 ed 8f bc 27 44 79 bc ed 04 5c bd b3 a0 23 3d
       -0.017569132 -0.015214003 -0.053715635 0.039948177
000210 ad be 68 3d e3 55 6e bd 19 6a 88 3d 02 13 cf 3d
       0.056822468 -0.058187377 0.066608615 0.10111047
000220 20 34 f6 bc 52 3b 3d 3d 13 09 77 bc 43 bd 2b bd
       -0.030054152 0.04619915 -0.015077847 -0.04192854
000230 7d ac 8a 3d 66 41 a2 bd cd a5 7b bd 63 e6 f3 bc
       0.06771181 -0.0792263 -0.061437417 -0.029772943
000240 b1 ea 67 3d 97 28 15 3d d0 06 a0 3d c6 13 6d 3d
       0.056620304 0.036415663 0.078137994 0.057880186
000250 6b a5 c3 3c 3b f9 1b 3d 3c 23 01 3d 6f c8 b8 3b
       0.023882588 0.03807948 0.031527743 0.005639128
000260 a0 9a 03 3d 57 92 81 3a 1b d1 78 3c 84 bf 25 3a
       0.032129884 0.0009885532 0.015186573 0.00063227885
000270 dd 67 91 3c 09 c1 07 bc 8f 62 d8 bc 64 ae b8 bc
       0.017749721 -0.008285769 -0.026414184 -0.022544093
000280 e6 40 b4 bc 00 52 91 bd c6 e7 8a 3d 34 d8 b7 3d
       -0.022003602 -0.070957184 0.067824885 0.08976784
000290 21 6b 93 bd d2 0a 5a bd 1f be 6b bb 95 7b 6b bc
       -0.071981676 -0.053232975 -0.0035971475 -0.014372726
0002a0 bf 77 a7 3d 2e 07 64 bd 9c bf 69 bd 01 d0 9d 3d
       0.08177137 -0.05567091 -0.0570675 0.07705689
0002b0 10 11 8b 3d 14 f6 ad bd cf 33 20 bd 14 c3 5c bd
       0.06790364 -0.08494201 -0.03911191 -0.05389698
0002c0 da 9a 6b 3d 0a 3f 54 3c b2 17 4c 3d 4e 50 68 3d
       0.057520725 0.012954483 0.049827285 0.05671721
0002d0 64 d0 5d bc f1 1f 2c 3d 7f c1 09 3c 03 8c 2e 3d
       -0.013538454 0.04202265 0.0084079495 0.042613994
0002e0 fc 13 5d 3d a6 8d b4 bd 34 6c 8e 3c a4 84 5e ba
       0.053974137 -0.0881608 0.01738558 -0.0008488393
0002f0 13 9d 63 3b 76 67 16 bd d4 06 43 3d 48 5c 02 3d
       0.0034731075 -0.03671976 0.047613934 0.031826288
000300 b5 ca d8 3c c7 5e 8c bc ec 90 49 bb 29 5f 7c bd
       0.026463846 -0.017135037 -0.0030756546 -0.06161419
000310 a3 76 b6 bd 11 b8 ba 3d 73 d3 f9 bc 6f 00 c3 bd
       -0.08909347 0.09117139 -0.030496335 -0.09521567
000320 5c f7 ed bb e7 40 e5 3d 05 bb 9d 3d 14 8f d4 3d
       -0.0072621536 0.1119402 0.07701687 0.103788525
000330 b7 a5 d9 3d c2 d0 ad 3d a9 38 82 bd 8b 8a 7c 3d
       0.10627311 0.08487083 -0.06358463 0.061655562
000340 e6 65 38 bd 5f 84 74 3d 2a 45 ba bd b9 43 2a bd
       -0.045019053 0.05969655 -0.09095223 -0.04156849
000350 bb 9b 90 3d 33 91 29 3d eb f0 3d bd 31 13 53 bb
       0.07060953 0.04139824 -0.046372335 -0.0032207484
000360 8e 93 48 bd 3a e2 70 3d e0 b6 46 bd b7 1d 20 3d
       -0.048968844 0.058809496 -0.048514247 0.03909084
000370 23 22 a2 3d 5a 42 cb bc 8d 2b 8f 3d 56 44 e2 bc
       0.07916667 -0.024811912 0.069907285 -0.027620476
000380 20 d2 a7 3d 0f 61 cb bc a1 c9 29 3d d0 25 4f 3d
       0.08194375 -0.024826555 0.041452054 0.05057317
000390 5a c4 6c 3d 2e b9 2d 3d b4 0d f6 3c 13 43 91 3c
       0.057804443 0.04241293 0.030035831 0.017732179
0003a0 2e de af bc 79 00 1a 3d b7 4c 90 3d b7 dd a1 bc
       -0.021468248 0.037598107 0.07045882 -0.019759042
0003b0 e6 2f 63 bd 19 62 f1 3c 50 11 95 bd 90 0a b0 bc
       -0.0554656 0.029465722 -0.07278693 -0.021489412
0003c0 98 35 33 3d 15 91 c2 3d 8f 17 7a bc c4 ad aa 3d
       0.043752283 0.095003285 -0.015264406 0.083339244
0003d0 27 ef 75 3d d6 49 1b bd 05 08 29 3d 6a ec d9 bc
       0.060042527 -0.037912212 0.041267414 -0.026601989
0003e0 d5 e4 ce 3d 79 4c 28 bd 1e 30 da bc b5 6d 7a bb
       0.1010224 -0.041088555 -0.026634272 -0.0038212363
0003f0 05 7c 7e bd 6a 27 5c bb a0 90 16 3d 5a fb 48 bd
       -0.062129993 -0.0033592829 0.03675902 -0.049067833

arith.constant5 f4 [1, 32]
000000 9b 98 9e bd 38 9f af 3d 58 6c c4 3d af ac ce bd
       -0.07743951 0.085752904 0.095909774 -0.100915305
000010 a3 66 ba 3c 2c 02 b9 bd 1a 6e 59 3d 46 7e 97 bd
       0.02275402 -0.090336174 0.053083517 -0.073971316
000020 b9 69 18 3d 63 a8 c9 3c 34 b9 2e bd a7 dd 97 3d
       0.0372102 0.024616426 -0.042657092 0.07415324
000030 6f 8c c7 bd e4 fe ac 3d 8f 5e 87 3d d3 6f 09 3e
       -0.097435825 0.08447054 0.066098325 0.13421564
000040 d8 ac 53 bc 2a 03 a4 bc 56 dc 15 bd 58 69 f9 3d
       -0.012919627 -0.02002104 -0.03658708 0.12178296
000050 7c 76 9a 3d d9 6f 54 3d bd 72 5b bd f0 5e 97 bd
       0.0754213 0.05186448 -0.05357622 -0.07391155
000060 89 d4 9c bd 5b 28 fe 3d 47 52 0f 3e 14 25 0b 3d
       -0.07657725 0.12410041 0.1399623 0.033970907
000070 bb 9a d9 3d a9 a8 00 3e fc 7d 53 bd 1c d9 36 bd
       0.106252156 0.12564339 -0.05163382 -0.044640645

arith.constant6 f4 [1, 64]
000000 79 c8 ae 3c a2 20 94 bc 15 fe 87 3d c3 ea bf 3d
       0.021335827 -0.018081967 0.06640259 0.09370949
000010 06 48 3c bc 50 40 01 bd f2 17 84 bd c5 6d 87 3d
       -0.011491781 -0.031555474 -0.0644988 0.06612734
000020 aa 1e 1a bd 48 ce 97 bd 00 3f 0c 3e c9 b3 8d bd
       -0.0376269 -0.07412392 0.13695908 -0.06919057
000030 90 4a 98 3c cc 11 bf 3d e6 39 27 bc cf df b0 3d
       0.018590242 0.09329566 -0.010206675 0.08636438
000040 bd 9d 24 bc f9 85 de 3d 8c 62 e4 bc 4b b9 97 bc
       -0.010047373 0.10865397 -0.027879022 -0.018520972
000050 a2 98 ac 3d c7 c0 c5 3d bd 3a e5 bd 64 9d 8d bd
       0.0842755 0.0965591 -0.11192844 -0.069147855
000060 89 4a 1b bd dd 51 9d bd 61 73 94 bd 90 d1 fd 3d
       -0.03791288 -0.0768163 -0.07248569 0.123934865
000070 10 9f 06 be 93 65 a7 bd f6 da 21 3d 6e b6 78 bd
       -0.13146615 -0.081736706 0.039515458 -0.060720854
000080 08 6f 8d 3c cf b1 38 3d ee 26 ca 3d 44 43 7a bc
       0.017264858 0.045091446 0.098707065 -0.015274826
000090 09 b6 93 3d 03 e6 95 3d 7c 49 c9 3d df 8c 09 3e
       0.07212455 0.07319262 0.09828469 0.13432644
0000a0 26 4d a9 3c d6 e7 23 bc 9c df 52 bd dd d3 55 bd
       0.02066667 -0.010004004 -0.05148278 -0.052204
0000b0 d7 98 d0 3d a6 c3 0c 3e 5a c5 89 3d bd 75 de 3d
       0.10185402 0.13746509 0.06727095 0.108623005
0000c0 26 49 da bd 7e 3e a6 3c 81 9b 6f bd 84 60 a9 3d
       -0.10658483 0.02029347 -0.05849791 0.08270362
0000d0 e2 77 12 3e 0f ec 8a bd ee ab 73 3d fe bf a1 bb
       0.14303544 -0.06783306 0.059490137 -0.0049362173
0000e0 1d d9 0f 3e 98 78 21 bd 1a 77 0f 3d 01 de 99 bd
       0.14047666 -0.039421648 0.035025693 -0.07513047
0000f0 36 80 9e bd c8 15 12 3e 27 ad 46 bb 6b 57 33 bd
       -0.07739298 0.14266121 -0.003031561 -0.04378454

arith.constant7 f4 [1, 64]
000000 df 07 51 bd 99 0d 23 3d 00 18 b8 3d 48 f4 6c 3c
       -0.051032897 0.03980789 0.08988953 0.014462538
000010 19 38 b5 bc 1a 70 a1 3d ac de ef bc 94 a2 c4 3d
       -0.022121476 0.0788271 -0.029280983 0.09601322
000020 52 30 1c 3d 68 26 71 3c 4f da b9 bc 3f 0e 9a 3c
       0.03813202 0.014718629 -0.022687105 0.018805621
000030 5d 05 8c 3d a7 6a 2d 3d 92 07 a3 bb 94 cf a5 3d
       0.068369605 0.04233804 -0.0049752677 0.08096233
000040 b0 5e 77 3d 53 b7 4e bd 62 47 8b 3d 96 b9 37 bd
       0.060393035 -0.0504678 0.068007246 -0.044854723
000050 26 a6 ca 3b 99 d7 e1 3c 7c b8 a9 bb 1e 73 37 bd
       0.006184357 0.027568625 -0.005179463 -0.04478752
000060 d1 ad e9 3d b7 9d 0a 3d 4b 29 36 3d 04 31 f8 bc
       0.11410106 0.033841815 0.044472974 -0.03029681
000070 8a a5 8f 3d ed e8 be 3d 75 bf 1f 3c 88 c1 02 ba
       0.07013996 0.09321771 0.009750237 -0.0004987945
000080 51 c0 c4 3d c4 8d 2f ba 3a 21 38 3d a4 2b 16 3d
       0.09606994 -0.0006696845 0.044953562 0.036662713
000090 31 9e af 3d a2 ba 33 bc 7d c3 8e bd 47 e4 9c 3d
       0.085750945 -0.01096979 -0.0697088 0.07660728
0000a0 53 76 48 3d 2f 95 8e 3d 68 96 25 bd fe ee 91 bd
       0.048940968 0.06962048 -0.04042664 -0.07125662
0000b0 87 db 79 3c f7 cd 82 3b 7c d1 e0 3d d4 86 20 bd
       0.015250093 0.003991838 0.10977456 -0.039191082
0000c0 4b ad 80 3d 15 99 0d bb 61 ed 62 bd c8 e3 d2 3d
       0.06283053 -0.0021606137 -0.055402163 0.10297352
0000d0 ce 66 6c 3b 38 68 29 bc 75 98 60 3c b6 ef f0 3c
       0.0036072019 -0.010339789 0.013708224 0.029411178
0000e0 36 4b 1e 3c fd 7c 88 3c be 2d 73 3d 8f a3 45 bd
       0.009661486 0.016661162 0.059369795 -0.048251685
0000f0 b3 96 94 3d 6f f7 55 3d 7c 96 27 bd 61 a2 ae bc
       0.07255306 0.052237924 -0.040914997 -0.021317663

arith.constant8 f4 [1, 128]
000000 5e c6 ac 3c d4 0b e4 3c da e4 87 3c 08 4b b7 3c
       0.021090683 0.027837671 0.016588617 0.022374645
000010 e2 33 99 3c 23 86 7b 3c e3 b5 7c 3c 7d 6e 55 3c
       0.018701497 0.015351805 0.015424225 0.013026831
000020 aa a7 b2 3c 75 17 b1 3c f0 4c 51 3c 7a 39 ce 3c
       0.021808464 0.02161763 0.012774691 0.025173891
000030 ce 96 8b 3c c9 8b ab 3c 1d 3d ea 3c 90 3d a9 3c
       0.017039683 0.020940678 0.028593594 0.020659238
000040 9c 98 b5 3c e7 f3 05 3d 3d 1f b9 3c 5a fc 00 3d
       0.022167496 0.032703307 0.022597903 0.03149066
000050 b3 e0 57 3c 15 64 85 3c e6 f1 94 3c 2a fb 1e ba
       0.013176131 0.016283074 0.018181752 -0.0006064648
000060 31 ae 7a 3c 73 7c 77 3c 6e 6d 04 3d 37 e9 bb 3c
       0.0153003195 0.015105355 0.032330923 0.022938354
000070 ac 7c 88 3c 3f 31 9e 3c 0d 5d d1 3c e2 3b ce 3c
       0.01666101 0.019310592 0.025557065 0.025175039
000080 9f 61 64 3b ab d1 6a 3c 98 b0 4d 3c d5 93 43 3c
       0.0034848226 0.014332215 0.01255431 0.011937101
000090 3c 3b 33 3c 19 37 14 bb 0c 21 56 3c 85 f5 c0 3c
       0.010939416 -0.0022615849 0.013069402 0.023554573
0000a0 7f 73 b4 3c f7 cc ac 3c c6 7c 8a 3c d8 34 e3 3c
       0.02202773 0.021093829 0.0169052 0.027735159
0000b0 60 cd b6 3c 62 35 a3 3c 0e a6 cf 3c b0 15 15 3c
       0.022314727 0.019922916 0.025347736 0.009099409
0000c0 7b 37 91 3c a0 4b 11 3d c8 fd 6e 3c 16 66 99 3c
       0.01772665 0.035472512 0.014586873 0.018725436
0000d0 d9 2f 5d 3c 4c fe c0 3c 59 95 01 3d 9d 29 bf 3c
       0.013500177 0.023558758 0.03163657 0.023335272
0000e0 8d 40 5e 3c de 9f 3f 3c e9 09 af 3c 9b 72 c5 3b
       0.013565195 0.01169583 0.02136703 0.006025625
0000f0 2b 7e e3 3c 0b 38 b3 3c 36 a3 be 3c 5b 49 80 3c
       0.027770123 0.02187731 0.023271184 0.015659979
000100 3c 1e 8a bc 11 8e 89 3c 37 40 bb 3c 8f 3c e9 3c
       -0.01686012 0.016791375 0.022857768 0.02847126
000110 80 29 86 3c 3e 19 e0 3c 33 09 31 3c 43 02 8b 3c
       0.01637721 0.027355786 0.010805416 0.016968852
000120 06 18 08 3d 26 ac e3 3c 05 8b ac 3c 47 e2 36 3c
       0.033226036 0.027792048 0.021062383 0.011162347
000130 be 3a 9e 3c be e1 dc 3c f7 33 be 3c 21 df b9 3c
       0.01931512 0.026963111 0.023218138 0.022689404
000140 17 0d a6 3c aa 0d a0 3c 00 22 75 3c 6e b9 ac 3c
       0.020269914 0.019537766 0.0149617195 0.021084514
000150 94 a5 a9 3c 21 35 c5 3c 74 3c 2b 3c 8d d1 6a 3c
       0.020708837 0.024073185 0.010451425 0.014332187
000160 92 a7 a4 3c 68 9e ae 3c 09 59 82 3c 9c aa be 3c
       0.020099435 0.021315768 0.015911596 0.023274712
000170 fb 74 88 3c 4c a8 9b 3c ae 59 a9 3c e8 18 8e 3c
       0.016657343 0.019001149 0.020672645 0.01734586
000180 25 d8 c0 3c 16 52 a5 3c 5f f6 e1 3c 48 21 8a 3c
       0.023540566 0.020180743 0.0275833 0.016861573
000190 5e af 5c 3c 06 d3 b2 3c ea b4 bd ba cf 0a b2 3c
       0.013469545 0.02182914 -0.0014473472 0.02173367
0001a0 64 7e 33 3c de 0f cf 3c 58 da be 3c c9 e0 a7 3c
       0.010955427 0.02527612 0.023297474 0.020492928
0001b0 70 5b 8c 3c 67 a9 b8 3c 9e fe 71 3c 13 e0 a8 3c
       0.017133445 0.022541715 0.014770178 0.02061466
0001c0 58 e9 8b 3c 18 69 8b 3c 05 2c 9e 3c 4f 6e ec 3c
       0.01707904 0.017017886 0.0193081 0.028861193
0001d0 15 32 99 3c 95 27 99 3c 1e 50 9f 3c 33 e2 dd 3c
       0.018700639 0.018695632 0.019447383 0.0270854
0001e0 04 8c b8 3c 18 4b 98 3c 23 f0 1a 3c e0 74 8c 3c
       0.022527702 0.018590495 0.009456667 0.017145574
0001f0 ca 7f 92 3c ec d6 2b 3c 62 16 94 3c 42 fa d7 3c
       0.0178832 0.010488253 0.01807708 0.02636445

arith.constant9 f4 [1, 128]
000000 e2 73 83 3f 5c 81 84 3f eb 98 83 3f 8a e7 82 3f
       1.026974 1.0351977 1.0281042 1.022691
000010 de bd 82 3f cd d6 82 3f a3 fe 82 3f 2c 41 83 3f
       1.0214193 1.0221802 1.0233959 1.0254264
000020 57 16 84 3f 39 3b 83 3f d0 74 83 3f db 3f 83 3f
       1.0319318 1.0252448 1.0270023 1.0253862
000030 77 9e 83 3f 93 b6 82 3f c1 74 84 3f 48 b9 83 3f
       1.0282735 1.0211967 1.034813 1.0290918
000040 93 e1 82 3f 02 33 85 3f 0a 41 84 3f 3a e6 84 3f
       1.022509 1.0406191 1.0332348 1.038276
000050 89 ed 82 3f 10 56 83 3f 00 50 83 3f 83 29 82 3f
       1.022874 1.0260639 1.0258789 1.0168918
000060 cb 91 83 3f 4f 28 83 3f 6d d3 84 3f c4 f4 83 3f
       1.0278867 1.0246676 1.0377022 1.0309072
000070 f3 9c 83 3f 00 4c 83 3f 74 21 83 3f 5d 97 83 3f
       1.0282272 1.0257568 1.0244584 1.0280567
000080 a8 17 81 3f 7b 46 83 3f 5c 8d 83 3f 93 b3 81 3f
       1.0085344 1.0255884 1.0277514 1.0132927
000090 a9 17 82 3f 0a be 81 3f f0 57 83 3f 17 65 83 3f
       1.016347 1.013612 1.0261211 1.0265225
0000a0 be fe 83 3f cc e4 82 3f 8c 33 83 3f b0 6b 84 3f
       1.0312116 1.0226073 1.0250106 1.0345364
0000b0 4f 11 84 3f 91 ba 82 3f bc 35 84 3f 44 35 82 3f
       1.0317782 1.0213186 1.0328898 1.0172505
0000c0 eb 5d 82 3f 11 67 85 3f c7 e6 82 3f 81 d0 82 3f
       1.0184911 1.0422078 1.0226678 1.021988
0000d0 a0 8c 82 3f 37 8f 83 3f dc 8c 84 3f 67 e1 84 3f
       1.0199165 1.0278081 1.0355487 1.0381287
0000e0 a8 03 82 3f 2e 31 83 3f a7 7f 83 3f 79 b3 82 3f
       1.0157366 1.0249383 1.0273331 1.0211021
0000f0 38 fb 83 3f 88 39 84 3f 81 53 83 3f 03 e8 82 3f
       1.0311041 1.0330057 1.0259858 1.0227054
000100 4a b0 7f 3f 5f fc 82 3f 88 56 83 3f ad 8c 83 3f
       0.9987837 1.0233268 1.0260782 1.0277306
000110 f4 0c 83 3f 51 eb 83 3f 6e 17 82 3f 37 00 84 3f
       1.0238328 1.0306188 1.01634 1.0312566
000120 55 81 85 3f 22 fc 83 3f d2 6c 83 3f f7 db 81 3f
       1.0430094 1.031132 1.0267584 1.0145253
000130 cb 2f 84 3f ee fe 83 3f 67 a4 83 3f 7b 00 84 3f
       1.0327085 1.0312173 1.0284547 1.0312647
000140 3f 0c 83 3f d1 a0 83 3f 0a d1 83 3f c6 7a 83 3f
       1.0238112 1.0283452 1.0298169 1.0271842
000150 6b d4 82 3f 9d a2 83 3f ba 4e 82 3f 3a e3 82 3f
       1.0221075 1.0284001 1.0180275 1.0225594
000160 e5 44 83 3f 0c 1e 83 3f bc 78 82 3f 7e 23 83 3f
       1.02554 1.0243545 1.0193095 1.0245206
000170 2d e6 82 3f 72 a4 83 3f 47 2c 83 3f 74 84 83 3f
       1.0226494 1.028456 1.0247887 1.0274796
000180 5e a8 83 3f 69 55 82 3f e8 18 84 3f 20 4b 82 3f
       1.0285757 1.0182315 1.0320101 1.0179176
000190 15 88 82 3f 43 0c 84 3f 30 e4 80 3f a4 25 83 3f
       1.0197779 1.0316242 1.0069637 1.0245862
0001a0 8f bd 83 3f a9 fa 83 3f 21 63 83 3f cc 47 83 3f
       1.0292224 1.031087 1.0264627 1.0256286
0001b0 68 fd 82 3f 09 e7 83 3f f3 24 82 3f b2 07 83 3f
       1.0233583 1.0304881 1.0167526 1.0236723
0001c0 24 ee 82 3f 65 bc 83 3f cc 61 84 3f b5 29 84 3f
       1.0228925 1.0291868 1.0342345 1.0325228
0001d0 6c 00 83 3f 0f dc 82 3f 79 00 83 3f a8 56 84 3f
       1.0234504 1.0223407 1.0234519 1.0338945
0001e0 d7 0d 83 3f b6 f5 83 3f 98 5a 81 3f 81 38 83 3f
       1.0238599 1.030936 1.0105772 1.0251619
0001f0 31 74 82 3f ea 14 83 3f 2a 0a 83 3f 55 58 84 3f
       1.0191709 1.0240757 1.0237477 1.0339457

arith.constant10 f4 [1, 128]
000000 ac 53 e5 ba 69 6e 98 bc 26 9a b9 3c e6 d5 02 bb
       -0.001749625 -0.018607335 0.022656512 -0.001996392
000010 48 39 94 bc 8d 3a d3 bc 90 94 85 bc ea 36 b1 3c
       -0.01809372 -0.025784755 -0.016306192 0.02163263
000020 8e b9 fd 3c 6c 17 5c 3c ab 4e af 3b 4e b1 6d 3c
       0.030972268 0.013433319 0.005349954 0.014507605
000030 18 69 7d bb 00 f0 57 3d 00 53 60 bb 84 6e 21 3c
       -0.0038667377 0.052719116 -0.003422916 0.009853009
000040 e6 86 75 bc 07 a8 a8 3c 0a 58 a9 bb 3e 81 15 3c
       -0.014985776 0.020587934 -0.005167966 0.009125052
000050 d3 1f 80 3c ce 27 00 3d 14 b5 1b bb f8 6d f0 3b
       0.015640175 0.03128796 -0.0023759054 0.007337328
000060 83 28 e0 3c bf f3 55 bc fc 0e fa bb 48 95 40 3c
       0.027363067 -0.013058602 -0.007631181 0.011754341
000070 3d a2 07 3c 80 6d e0 3c e8 1a 7b 3c 0a 02 d7 bc
       0.008278427 0.027395964 0.015326239 -0.02624609
000080 f8 3a 7f 3c 44 20 b0 bc 1a cb 2e bc fe 53 e3 bb
       0.015578024 -0.02149976 -0.01066854 -0.006937503
000090 e0 30 7b bc 63 e6 e8 bc 02 08 8d bc e8 cd 1b 3c
       -0.015331477 -0.02843017 -0.017215732 0.009509541
0000a0 ba 20 b8 bc 95 12 ac bc c7 44 0d bc 32 8a 02 bd
       -0.022476543 -0.021004954 -0.008622355 -0.031870075
0000b0 85 dd f3 3c ca b0 9d 3c 24 a9 a2 3c 93 bd 65 3c
       0.029768715 0.019249339 0.019856043 0.014022249
0000c0 0a 9b e0 3b de 61 3a 3c 98 af af 3a 1d aa b6 bc
       0.0068544196 0.011375872 0.0013403771 -0.022297913
0000d0 c8 52 e3 3b 5e f0 e7 bb 4a 11 f7 3c 7a be 7a bc
       0.0069373585 -0.0070782145 0.030159611 -0.015304202
0000e0 02 64 83 bc 2a 9c 93 bb ba 1b 9c 3c 72 8a 5b bc
       -0.016038898 -0.0045047 0.01905619 -0.013399707
0000f0 e5 a6 e5 3b 7e c0 c1 bc 2f 2a ca bc 20 87 0b 3c
       0.007008421 -0.023651358 -0.024678318 0.008516103
000100 e0 81 4c 3a f0 3e 0a 3a 1f 99 80 3b 98 44 e2 bb
       0.00078013353 0.00052736606 0.0039245035 -0.0069051497
000110 94 29 8e 3b 02 47 c1 bc 77 fe 08 bd ca 5e 52 bc
       0.0043384526 -0.02359343 -0.0334458 -0.012839982
000120 42 a9 5e 3b 10 d7 da 3c 40 7e 8a b8 2f 3c 6d 3a
       0.0033975397 0.026713878 -6.603869e-05 0.00090498006
000130 30 f1 99 3c 16 c3 b9 3b b5 04 4b bc 14 99 03 bb
       0.018791765 0.005669008 -0.012391259 -0.0020080255
000140 64 88 1c 3c 00 88 b0 b9 68 04 b4 3a d9 04 c3 3c
       0.009554002 -0.00033670664 0.0013734223 0.023806022
000150 a2 44 78 bc 2a 6e 90 bc 91 c0 dc 3c e4 80 b8 bc
       -0.015153082 -0.017630655 0.026947292 -0.022522397
000160 60 4e 19 3c 94 55 15 3b 0b 94 8c bc c7 4c a8 bc
       0.009357065 0.0022786604 -0.017160436 -0.020544423
000170 f0 61 ac 3c da d7 95 bc 66 7f 7e 3b 3e 4b f1 bb
       0.021042794 -0.018291403 0.003883326 -0.007363706
000180 ac 7f 71 3c 2e 71 2e 3d a4 74 57 bc c3 bd 37 bc
       0.014739912 0.042588405 -0.013150368 -0.011214676
000190 2f fa bc bc 78 de 9a bb 19 fe bc 3c 62 59 a2 bc
       -0.023068516 -0.0047262274 0.023070382 -0.019818012
0001a0 3c bf 91 bc 98 c1 cf b8 34 68 81 3c 88 2b a1 3c
       -0.017791383 -9.906589e-05 0.015796758 0.019674078
0001b0 d6 aa 7f bb fc 8d 51 3c 75 8a 70 3d de e0 6a bc
       -0.0039011738 0.012790199 0.058725793 -0.014335839
0001c0 f6 71 2f 3c 16 3e ac 3c c0 94 b1 3a 1c 1f 4a 3b
       0.010708323 0.021025699 0.0013548359 0.0030841297
0001d0 b8 64 aa bc 5d d0 8e bc 49 03 52 3c 9e ee 3b 3c
       -0.02079998 -0.01743334 0.012818166 0.011470465
0001e0 03 6e d1 3c 00 fb 25 3b aa ae cf 3c 42 79 69 3c
       0.025565153 0.002532661 0.025351841 0.0142501015
0001f0 43 43 6c 3c bc 23 3b 3c 98 83 a7 3c be 7a a4 3c
       0.014420333 0.011422094 0.020448491 0.02007806

arith.constant11 f4 [1, 128]
000000 b7 4a 84 40 59 b5 a5 40 14 b9 91 40 65 6f 62 40
       4.1341205 5.178387 4.5538425 3.538049
000010 db 93 71 40 86 9d 2b 40 75 43 ac 40 e8 0a 78 40
       3.7746494 2.6814895 5.3832345 3.8756657
000020 58 81 56 40 67 45 59 40 a3 50 4f 40 c5 28 58 40
       3.3516445 3.394861 3.2392967 3.3774884
000030 3e a6 a4 40 3a b1 55 3f fc 3f f2 3f 46 3b 99 40
       5.145293 0.8347355 1.8925776 4.7884855
000040 31 d4 46 40 04 27 80 40 be 4a 5b 40 24 bb 59 40
       3.1067011 4.0047626 3.426437 3.4020472
000050 bc f2 83 40 d5 32 25 40 52 d9 89 40 64 6e 9c 40
       4.1233807 2.5812275 4.3077784 4.8884754
000060 16 16 53 40 f0 48 a4 40 5c 4e 8d 40 d8 65 d7 40
       3.298223 5.1339035 4.4158154 6.731182
000070 49 a4 38 40 4c 02 54 40 63 cf 10 40 d4 3a 52 40
       2.8850272 3.3126402 2.2626579 3.2848406
000080 b1 66 46 40 ad b2 a3 40 86 77 8e 40 df 0d f3 3f
       3.1000178 5.115561 4.4520903 1.8988608
000090 a8 3a 50 40 8d a0 4c 40 94 77 62 40 e1 2e 6f 40
       3.25358 3.1972992 3.5385485 3.7372363
0000a0 4d ef d1 40 2f 0f 9f 40 aa 17 1b 40 b4 0a 45 40
       6.5604615 4.9706035 2.4233193 3.0787783
0000b0 57 0e 37 40 ed 4c 2d 40 15 c8 d0 40 0c b6 a1 40
       2.8602502 2.7078202 6.524424 5.0534725
0000c0 dc 8b 14 40 0b 5b 3a 40 1b b1 5a 40 2f f3 83 40
       2.3210363 2.9118068 3.4170597 4.1234355
0000d0 20 30 ee 3f f9 3c 85 40 0e 64 e5 3f 7a 0c 78 40
       1.8608437 4.163693 1.7921159 3.8757615
0000e0 1f 2f dc 3f 5e 4d 1f 40 ad 65 5b 40 55 38 85 40
       1.720188 2.489097 3.4280808 4.1631265
0000f0 7c 03 8a 40 de 85 a0 40 f4 c5 8e 40 57 85 82 40
       4.3129253 5.016341 4.461664 4.078777
000100 ee 2d 73 40 06 dd 70 40 0a 17 25 40 8b 3c 4f 40
       3.7996783 3.7634902 2.5795312 3.2380702
000110 ae f0 4d 40 8b d4 c5 40 ca bc 2e 40 86 8d 86 40
       3.217815 6.182195 2.7302728 4.204776
000120 05 c0 27 40 f7 73 a0 40 f5 26 ff 3f d0 87 38 40
       2.621095 5.014156 1.9933764 2.8832893
000130 21 57 da 40 b8 ac f7 3f f1 83 97 40 02 b1 99 40
       6.823136 1.9349585 4.734856 4.8028574
000140 60 ba 13 40 66 f7 c9 40 29 bf a1 40 46 28 32 40
       2.3082504 6.31145 5.054585 2.783708
000150 db 56 40 40 57 36 31 40 1d c6 64 40 fd 9d 87 40
       3.0053012 2.7689416 3.5745919 4.2380357
000160 32 8b 8b 40 56 7e 81 40 76 b0 6a 40 69 67 6e 40
       4.3607416 4.046672 3.6670203 3.7250617
000170 7b ac 61 40 cf 37 77 40 55 fc 4e 40 bd 3a 81 40
       3.5261524 3.8627813 3.2341511 4.03842
000180 30 a1 d6 40 3b a9 09 3f ce eb 5f 40 46 c7 80 40
       6.707176 0.5377385 3.4987674 4.0243254
000190 94 53 91 40 15 79 7e 40 ec f9 37 40 a3 ce 68 40
       4.5414524 3.9761403 2.874629 3.637612
0001a0 5c 03 96 40 6b c0 80 40 c0 2e 56 40 26 57 4e 40
       4.68791 4.0234885 3.3466034 3.224069
0001b0 38 7e 30 40 a1 c0 86 40 29 20 38 3f 79 19 6d 40
       2.7577038 4.2110143 0.7192407 3.7046797
0001c0 9c a0 51 40 b4 97 41 40 a9 4a 82 40 1f 3c af 40
       3.2754278 3.0248842 4.071614 5.476089
0001d0 08 92 40 40 90 85 81 40 1a 00 9a 40 c2 9e 55 40
       3.008913 4.047554 4.8125124 3.3378148
0001e0 42 15 49 40 91 01 5c 40 32 3d ea 3f 15 87 99 40
       3.1419225 3.4375956 1.8299925 4.7977395
0001f0 b8 dc 01 40 fc 62 11 40 4f b7 7c 40 c0 27 51 40
       2.0290966 2.2716665 3.9486883 3.2680511
